Pytorch_code-master/pytorch_code/04/cls_reg/model/mnist_model.pkl (torch_old, 278372 bytes, 8 tensors)

weight f4 [32, 1, 5, 5]
0	0xbf334a13	-0.70034903
1	0x3e1aa824	0.15103203
2	0x3e93608e	0.28784603
3	0xbd7a64cf	-0.061131295
4	0x3f332cb1	0.6999007
5	0xbf4da677	-0.8033213
6	0x3ef10c41	0.4707966
7	0x3e935ff3	0.2878414
8	0x3e40602d	0.18786688
9	0x3e709ce9	0.23497356
10	0xbfe4af9d	-1.7866093
11	0xbc70b331	-0.01469116
12	0x3f8845da	1.0646317
13	0x3f0e18a3	0.5550634
14	0xbee90de3	-0.45518407
15	0xbfb60a5e	-1.4221914
16	0xc0064874	-2.0981722
17	0xbf98f1e5	-1.194882
18	0xbf1184d3	-0.568433
19	0xbfb28025	-1.3945357
20	0x3f0f468d	0.55967027
21	0x3e9c0bfa	0.30477887
22	0xbf5f7782	-0.8729173
23	0xbf34fb9e	-0.7069644
24	0x3d987b9f	0.07445454
25	0x3e51722e	0.20453712
26	0x3f174d04	0.5910189
27	0x3ebd94c6	0.37027568
28	0x3ea96a7a	0.33089048
29	0x3f0ab6b4	0.5418503
30	0xbf8d2fc2	-1.10302
31	0xbeef5d50	-0.4675088
32	0xbcc21d8c	-0.02369573
33	0x3e318f2c	0.17339772
34	0x3d5154ca	0.05110625
35	0xbfddad9d	-1.7318608
36	0xbfdb0b14	-1.7112756
37	0xbf34bd8e	-0.7060174
38	0xbcee6649	-0.029101508
39	0xbe624f4c	-0.22100562
40	0x3f00d46b	0.50324124
41	0xbeceb10c	-0.4036945
42	0xbffc0347	-1.96885
43	0xbfbab736	-1.4587162
44	0xbfe28969	-1.7698184
45	0x3f8589ac	1.0432639
46	0x3f82a304	1.0205998
47	0x3e921fef	0.28539988
48	0xbf1f1f8b	-0.62157506
49	0xbf4ede64	-0.8080809
50	0xbf22c49f	-0.6358127
51	0x3f3e0d13	0.742387
52	0xbdde30b0	-0.1084913
53	0xbf0daceb	-0.55341977
54	0xbf64c407	-0.89361614
55	0xbe1ab3d1	-0.15107657
56	0x3d940f9e	0.07229541
57	0x3e767d76	0.24071297
58	0xbc5416b9	-0.012944871
59	0xbf946286	-1.1592567
60	0xbd660c03	-0.0561638
61	0x3ec651cf	0.3873429
62	0x3f3e2a3f	0.7428321
63	0xbe464680	-0.19362831
64	0xbf931190	-1.1489735
65	0xbf4e3731	-0.80552965
66	0xbde6c868	-0.11268693
67	0xbdf96bca	-0.12178762
68	0xbf8f9b81	-1.1219331
69	0xbf406a5e	-0.75162303
70	0xbeeb7e5e	-0.45994848
71	0x3e0319e9	0.12802853
72	0xbed986ed	-0.42485753
73	0xbf82467b	-1.0177759
74	0xbf2d7530	-0.6775694
75	0xbfdae57f	-1.7101287
76	0xbf3e4210	-0.74319553
77	0x3f110499	0.5664764
78	0x3f469201	0.77566534
79	0x3e2cfa84	0.16892439
80	0xbf8af82c	-1.0856986
81	0xbeaedc3c	-0.341524
82	0x3f2772ae	0.6540936
83	0x3f916a56	1.1360576
84	0x3e83841e	0.25686735
85	0xbeea2a84	-0.45735562
86	0xbda5bcd2	-0.08092655
87	0x3e2e9a69	0.1705109
88	0x3fab5987	1.3386697
89	0x3e15a706	0.14614496
90	0xbee1c972	-0.44099003
91	0xbd01de4d	-0.031706143
92	0x3ed53e29	0.41648987
93	0x3fe3f853	1.7810158
94	0x3f140d1c	0.57832503
95	0xbeffe8aa	-0.49982196
96	0x3dc4ce74	0.0960969
97	0x3eb6dd66	0.3571579
98	0x3fc8914d	1.5669342
99	0x3e91b437	0.28457806
100	0xbec0f314	-0.37685454
101	0x3f277964	0.654196
102	0x3faec417	1.3653592
103	0xbedb847f	-0.42874524
104	0xbf7ed12a	-0.9953791
105	0xbf704fb6	-0.9387163
106	0x3f4cbc76	0.7997507
107	0x3f33696c	0.70082736
108	0xbf191772	-0.598014
109	0xbf26cd32	-0.65156853
110	0xbe728b67	-0.2368599
111	0x3fa6761d	1.3004795
112	0x3e9b7d19	0.3036888
113	0xbeeccbf0	-0.46249342
114	0xbf360103	-0.71095294
115	0x3ef4491d	0.4771203
116	0x3ea9ee4c	0.3318962
117	0xbe0738c2	-0.13205245
118	0xbf07f2a2	-0.53104603
119	0xbed50744	-0.41607106
120	0x3f80003c	1.0000072
121	0x3e3c7a9c	0.18406147
122	0x3eb75e51	0.35814145
123	0xbe732bfb	-0.23747246
124	0x3e842d27	0.25815699
125	0xbf46231b	-0.77397317
126	0xbf306d46	-0.6891674
127	0xbf18ced2	-0.5969058
128	0xbcccc8f1	-0.02499816
129	0x3e9127b1	0.28350595
130	0xbebbe319	-0.366967
131	0xbf10393a	-0.5633732
132	0xbf41cab3	-0.7569992
133	0x3e2ba97d	0.16763873
134	0x3d90edff	0.07076644
135	0xbf21f9a8	-0.6327157
136	0xbf215b80	-0.6303024
137	0xbf1729a0	-0.5904789
138	0x3ed74b4d	0.42049637
139	0xbcb0df6d	-0.021590913
140	0xbf10ae7e	-0.56516254
141	0xbef77a4d	-0.48335496
142	0xbf11936c	-0.5686557
143	0x3eb954aa	0.36197406
144	0xbea68bbf	-0.32528493
145	0xbf0d7e6b	-0.55271024
146	0xbf42ee97	-0.7614531
147	0xbeb002ed	-0.34377232
148	0x3edc6166	0.4304306
149	0x3d4e8ee3	0.050429236
150	0x3efef8fa	0.4979933
151	0x3f24df51	0.64403254
152	0x3e403eca	0.18773952
153	0x3e4a065f	0.19728993
154	0xbdee726a	-0.116429165
155	0x3f0d176c	0.55113864
156	0x3f347342	0.7048837
157	0x3f3206f6	0.6954187
158	0x3f698952	0.9122516
159	0x3edf0f78	0.4356649
160	0x3f2c3574	0.67269063
161	0x3ed18e8d	0.4092907
162	0x3eb42505	0.35184494
163	0x3f43da37	0.76504844
164	0x3f5b4de9	0.85665756
165	0x3fafb754	1.3727822
166	0x3f2149db	0.6300332
167	0x3f43e4bd	0.765209
168	0x3f47ae28	0.78000116
169	0x3f536671	0.8257819
170	0x3f8184bd	1.0118634
171	0x3e399de0	0.18126631
172	0x3eed9dc3	0.46409425
173	0xbdcebf95	-0.10095135
174	0x3e316288	0.17322743
175	0x3d1e6e07	0.03867915
176	0xbf068d60	-0.5255947
177	0xbe573910	-0.21017861
178	0x3e360482	0.17775157
179	0x3f1555fd	0.5833433
180	0x3e34e56c	0.17665642
181	0x3f09d4ee	0.5384053
182	0x3ee9f9ee	0.45698494
183	0x3eebc198	0.46046138
184	0xbf0682ac	-0.5254314
185	0x3de7562a	0.11295731
186	0x3ef230a8	0.47302747
187	0x3f1b3116	0.60621774
188	0x3e745776	0.23861489
189	0xbfa810f7	-1.3130177
190	0xbff25310	-1.8931599
191	0xbe9b5428	-0.30337644
192	0x3e366e04	0.17815405
193	0xbf12269c	-0.57090163
194	0xbfc08fd1	-1.5043889
195	0xbfcbad4d	-1.5912262
196	0xbfcc16a7	-1.5944413
197	0xbfc5000f	-1.5390643
198	0xbf973e88	-1.1815958
199	0xbf2240e6	-0.6338028
200	0xbf0350b3	-0.5129501
201	0xbfb9a923	-1.4504741
202	0xbf45a684	-0.7720721
203	0xbf53e261	-0.827673
204	0xc000b7a1	-2.0112078
205	0xbfaabcda	-1.3338883
206	0xbef33d10	-0.47507524
207	0xbc8f103e	-0.0174638
208	0xbf7976bb	-0.97446793
209	0xbf19c16c	-0.60060763
210	0xbf9d03af	-1.2266749
211	0xbf08ac49	-0.53387886
212	0x3f1c1a21	0.6097737
213	0x3f15d753	0.58531684
214	0x3f573548	0.84065676
215	0xbf9576fb	-1.1676935
216	0xbf38c609	-0.7217718
217	0xbf2e6a6c	-0.68131137
218	0x3e04367d	0.1291141
219	0x3f35b086	0.7097248
220	0xbf8b9690	-1.0905323
221	0xbf9542af	-1.1660975
222	0xbee5bb76	-0.44869584
223	0x3f31002b	0.6914088
224	0x3e45a367	0.19300614
225	0x3dc7a8cd	0.09748993
226	0x3d526b06	0.051371597
227	0xbde22a5f	-0.11043238
228	0x3c80fc69	0.015745359
229	0x3e968b3c	0.29403102
230	0x3e45532a	0.19270006
231	0x3d57c4ad	0.0526778
232	0x3cc6398b	0.02419736
233	0x3dd92ada	0.106038764
234	0xbe3ffdcf	-0.18749164
235	0xbe617916	-0.22018847
236	0xbe8dba24	-0.27681077
237	0xbdc8b860	-0.09800792
238	0xbe96c0db	-0.29444012
239	0xbea2fd90	-0.31834078
240	0xbeccc863	-0.39996633
241	0xbdadc012	-0.084839
242	0xbeb3a2ef	-0.35085246
243	0xbeb5a8b9	-0.35480288
244	0xbf0137a4	-0.50475526
245	0xbe5e0b6b	-0.21684043
246	0xbe995625	-0.29948536
247	0xbe5662d4	-0.20936137
248	0xbedc7d2b	-0.43064246
249	0xbefb4c3e	-0.49081606
250	0xbf4168a0	-0.7555027
251	0x3efdc0ec	0.4956125
252	0x3f5e6f0c	0.86888194
253	0x3f5524cc	0.8325927
254	0xbf60bdd2	-0.8778964
255	0xbf010fb5	-0.5041459

bias f4 [32]
0	0x3e8e6118	0.27808452
1	0xbdb0ff0d	-0.08642397
2	0x3f0dd280	0.5539932
3	0xbef28360	-0.47365856
4	0xbe6d160f	-0.23152946
5	0xbe5535a6	-0.20821247
6	0xbd5d731e	-0.054064862
7	0x3ec569a8	0.38557172
8	0xbd260476	-0.040531598
9	0x3e4ac988	0.1980344
10	0xbf2521cd	-0.645047
11	0xbe0f5e9e	-0.14000937
12	0x3e581753	0.21102647
13	0x3ed5f9b9	0.41792086
14	0x3f76af0d	0.96360856
15	0xbf4af03c	-0.7927282
16	0xbfac95f0	-1.3483257
17	0xbf8645c3	-1.049004
18	0xbdd1117a	-0.102084115
19	0xbf2499ce	-0.6429719
20	0xbcdb5e7c	-0.026778452
21	0xbe7e0221	-0.248055
22	0xbe998f3a	-0.29992086
23	0xbf432bf9	-0.7623897
24	0x3eeea527	0.46610376
25	0x3e8a8181	0.2705193
26	0xbeed1d16	-0.46311253
27	0x3c4e1239	0.012577587
28	0xbe99eaeb	-0.3006204
29	0x3c4a7926	0.012357986
30	0xbe4f4d60	-0.2024436
31	0xbd13c082	-0.03607226

running_mean f4 [32]
0	0xbf2c7a16	-0.6737379
1	0xbf90f1d0	-1.1323795
2	0xbf03eaf2	-0.51530373
3	0x3e32ee56	0.1747373
4	0xbdc6d6f2	-0.09708966
5	0xbf98d58d	-1.194017
6	0x3fe3a850	1.778574
7	0xbf597e00	-0.84957886
8	0xbfd4463b	-1.6583933
9	0xbeaa4b79	-0.33260706
10	0xc000bfe5	-2.0117123
11	0xbf4394a7	-0.763987
12	0x3eaf6077	0.34253284
13	0x3f2b39a7	0.66884845
14	0xbd1b98a4	-0.037987366
15	0xbc867e80	-0.016417742
16	0xc007bc05	-2.1208508
17	0xc010ca42	-2.2623448
18	0xbfc73677	-1.5563496
19	0xbfd2de83	-1.6474155
20	0xbe9f621d	-0.31129542
21	0xbfa98b7d	-1.3245693
22	0xbf7fc244	-0.999058
23	0xbf18a957	-0.5963339
24	0xbf456ed0	-0.7712221
25	0xbf82b298	-1.0210752
26	0xbfe117c6	-1.758538
27	0xbf2b5dc7	-0.6693997
28	0xbfadcdf6	-1.3578479
29	0xbf971a7f	-1.1804961
30	0xbfae442b	-1.3614553
31	0xbf861293	-1.0474418

running_var f4 [32]
0	0x4066962d	3.602916
1	0x409ad9e9	4.8391004
2	0x4065d6fe	3.591247
3	0x40a90a2d	5.282492
4	0x3fcccd1b	1.6000093
5	0x40603f8d	3.5038788
6	0x4112e878	9.181755
7	0x40b87726	5.7645445
8	0x410cea26	8.807165
9	0x3f7c4f4a	0.98558486
10	0x40e53e4f	7.163856
11	0x3f96fe1b	1.1796297
12	0x3efade64	0.48997796
13	0x3fa7dfec	1.311521
14	0x405592b7	3.3370798
15	0x40259bd0	2.587635
16	0x405495b4	3.3216372
17	0x40a9461a	5.2898073
18	0x410add6c	8.679058
19	0x4041664e	3.0218692
20	0x3f010848	0.5040326
21	0x40540c03	3.3132331
22	0x40498508	3.1487446
23	0x3f859759	1.0436813
24	0x40e484c7	7.141208
25	0x40bcf4dd	5.9048905
26	0x40b63300	5.6937256
27	0x3fa3eda5	1.2806898
28	0x406b4824	3.676278
29	0x4084be77	4.14825
30	0x40a93c72	5.2886286
31	0x404dc941	3.2154086

weight f4 [32]
0	0x3f1deec5	0.6169246
1	0x3f4339b3	0.7625992
2	0x3ee01516	0.43766087
3	0x3ede8f4a	0.43468696
4	0x3eac73e3	0.33682165
5	0x3ed591b7	0.41712734
6	0x3ee95304	0.45571148
7	0x3ef3bd2f	0.47605273
8	0x3f6f716d	0.9353245
9	0x3eb23e3e	0.34813112
10	0x3f87b24b	1.0601286
11	0x3e878dee	0.2647547
12	0x3e9914e7	0.2989876
13	0x3ec82baa	0.39095813
14	0x3f2225dd	0.63339025
15	0x3f0f350b	0.5594031
16	0x3f0765a3	0.5288946
17	0x3f8c7c51	1.0975438
18	0x3f6ec8d7	0.9327521
19	0x3f762910	0.96156406
20	0x3e40992b	0.18808429
21	0x3f822289	1.0166789
22	0x3f157c0e	0.5839242
23	0x3ee9ab1a	0.45638353
24	0x3f435bd9	0.76312023
25	0x3f4d4f60	0.8019924
26	0x3ef7cbb3	0.48397598
27	0x3f930f46	1.1489036
28	0x3f65f1e6	0.8982223
29	0x3f44aa59	0.7682243
30	0x3f2ef301	0.68339545
31	0x3ebc1f70	0.36742735

bias f4 [32]
0	0xbee1b8e0	-0.4408636
1	0xbef438d6	-0.47699612
2	0xbed39c72	-0.41330296
3	0xbfaa96c7	-1.3327264
4	0xbf8139aa	-1.0095723
5	0xbf17a88e	-0.5924157
6	0xbfbd35bf	-1.4782027
7	0xbed5c190	-0.4174924
8	0xbf168616	-0.5879835
9	0xbee5c815	-0.44879213
10	0xbf2db823	-0.67859095
11	0xbf2ef58b	-0.6834342
12	0xbf8221dd	-1.0166584
13	0xbf842f7c	-1.0326991
14	0xbedc797c	-0.43061435
15	0xbfdfae20	-1.7475014
16	0xbee28d89	-0.44248608
17	0xbf21b374	-0.6316445
18	0xbf0ecf12	-0.55784714
19	0xbf36312f	-0.711688
20	0xbf57c1b6	-0.84279954
21	0xbf215617	-0.6302199
22	0xbf07f7be	-0.531124
23	0xbfaf8c98	-1.3714781
24	0xbeff5014	-0.49865782
25	0xbf2d0ce7	-0.6759781
26	0xbf36b4e3	-0.7136976
27	0xbf51e266	-0.8198608
28	0xbf23fcb5	-0.64057475
29	0xbf1e0940	-0.61732864
30	0xbee8bc63	-0.45456228
31	0xbf328926	-0.6974052

weight f4 [10, 6272]
0	0x3e986387	0.29763433
1	0x3e9e7d22	0.30954844
2	0x3e9e5107	0.30921194
3	0x3e9b0190	0.3027463
4	0x3e2d3438	0.16914451
5	0x3d8cdfd6	0.06878631
6	0xbda92464	-0.08258894
7	0x3f120520	0.5703907
8	0x3f0eb5e6	0.55746305
9	0x3e88e833	0.26739654
10	0x3e5f825d	0.21827073
11	0x3e506517	0.20351063
12	0x3bd05f85	0.006359043
13	0x3e71eac2	0.23624709
14	0x3e9d8d7e	0.30772012
15	0x3ebd0e62	0.36925036
16	0x3e7843c3	0.24244599
17	0x3e95c40c	0.29251134
18	0x3f36008f	0.710946
19	0x3f074df9	0.5285335
20	0x3f0b7853	0.54480475
21	0x3f235545	0.63801986
22	0x3c739ceb	0.014868955
23	0xbedc2b85	-0.43001953
24	0x3f32f84a	0.6991011
25	0x3f906e5e	1.1283681
26	0xbdc32ff7	-0.09530633
27	0xbe2ec6cf	-0.17068027
28	0x3ea9140f	0.33023116
29	0x3e5cdec1	0.21569349
30	0x3eb40314	0.35158598
31	0x3ec60f11	0.3868337
32	0x3ca12131	0.019669147
33	0x3d63f6db	0.05565534
34	0xbea8dfe3	-0.32983312
35	0x3f09d459	0.5383964
36	0x3f6cab0f	0.92448515
37	0x3e18ea95	0.14933236
38	0x3f301d9a	0.6879517
39	0x3f0873ef	0.533019
40	0x3e9e47e9	0.30914238
41	0x3ebdf042	0.37097365
42	0x3e9873f3	0.29775962
43	0x3e824289	0.25441387
44	0x3d6a922f	0.057268318
45	0xbed52a2c	-0.41633737
46	0xbf1de3a4	-0.6167548
47	0xbd129cea	-0.035794176
48	0xbf0e3b80	-0.5555954
49	0xbe425cf6	-0.18980774
50	0xbed00990	-0.40632296
51	0xbccb827b	-0.024842491
52	0xbf1c333e	-0.6101569
53	0x3e4314e1	0.19050933
54	0x3e8d4df4	0.27598536
55	0x3eff6611	0.49882558
56	0x3eab3b34	0.33443606
57	0x3e048add	0.12943597
58	0xbf0db964	-0.5536101
59	0xbf42b838	-0.76062346
60	0x3ea15208	0.31507897
61	0xbe02e9dc	-0.12784523
62	0xbf543004	-0.82885766
63	0x3eef6bb7	0.46761867
64	0x3e0fba2f	0.14035867
65	0x3e016475	0.12635978
66	0xbec19695	-0.37810197
67	0xbee4cb04	-0.4468614
68	0xbf00879a	-0.5020691
69	0x3ec01226	0.37513846
70	0x3edee06a	0.4353059
71	0x3eb73d22	0.35788828
72	0xbe2a9ff2	-0.16662577
73	0xbfb4c06c	-1.4121222
74	0xbfd5380f	-1.6657733
75	0xbf44d92f	-0.76893896
76	0xbea40c1e	-0.32040495
77	0x3e2ac3f6	0.16676316
78	0x3ced5f94	0.02897624
79	0x3ed904a7	0.42386362
80	0x3f0a1a08	0.5394597
81	0x3e0d572b	0.13802783
82	0xbb9f2356	-0.0048565073
83	0x3c55bbca	0.013045261
84	0x3ec8a33e	0.39187044
85	0x3c795b44	0.015219513
86	0xbf4e1dcf	-0.80514234
87	0xbdd7ff52	-0.10546745
88	0xbe43e62b	-0.19130771
89	0xbfd3bc80	-1.6541901
90	0xbee0a223	-0.438737
91	0x3f4bc3a3	0.7959539
92	0x3f8c7de0	1.0975914
93	0x3f8b03bc	1.0860515
94	0x3f036c3a	0.51337016
95	0xbe9f8dbf	-0.3116283
96	0xbf0336e1	-0.51255614
97	0x3e04ad67	0.12956773
98	0x3eaaef92	0.33385903
99	0xbeebde85	-0.46068206
100	0xbf7eabde	-0.99481
101	0xbfc4db40	-1.537941
102	0xc00405d8	-2.0628567
103	0xbf3801ec	-0.7187793
104	0x3e1d026b	0.15332954
105	0x3f9553c8	1.1666193
106	0x3f6761ac	0.9038341
107	0x3f23eca5	0.64032966
108	0x3de0dd5b	0.1097972
109	0xbf7578cf	-0.95887464
110	0xbe8d13ba	-0.27554113
111	0x3db99f53	0.09063592
112	0xbd6bab59	-0.057536457
113	0x3e0ebb94	0.13938743
114	0xbd16dcbc	-0.036831602
115	0xbf2fb9dc	-0.68642974
116	0xbffaa0e2	-1.9580348
117	0xbfa88d3c	-1.3168101
118	0x3e0208d1	0.12698676
119	0x3d03ae22	0.032148488
120	0xbec26ff2	-0.37976032
121	0xbe9a597b	-0.30146393
122	0xbef38b8e	-0.4756741
123	0xbf10d988	-0.56581926
124	0xbd961a35	-0.07329217
125	0x3e9adfca	0.30248863
126	0x3d189eb6	0.037260734
127	0x3f16032f	0.5859861
128	0x3eaa94fb	0.33316788
129	0x3e1101e6	0.1416088
130	0x3f1c9493	0.61164206
131	0xbf55e634	-0.8355439
132	0xbeb0acd5	-0.3450686
133	0x3f242e8b	0.6413352
134	0x3e20d9a3	0.15708022
135	0xbeb45a59	-0.3522518
136	0xbe0b5208	-0.13605511
137	0xbeff6dff	-0.49888608
138	0xbcd0f63f	-0.025508044
139	0x3ea67d89	0.3251765
140	0xbe767ffe	-0.24072263
141	0xbf0711ee	-0.52761734
142	0xbe7156ed	-0.23568316
143	0xbec4209f	-0.38306138
144	0xbe81cf48	-0.25353456
145	0x3f49499b	0.7862794
146	0xbe9c48c0	-0.30524254
147	0xbf1f0ee2	-0.62132084
148	0xbe3e1a11	-0.18564631
149	0x3df3c8f4	0.11903563
150	0xbe45ac29	-0.19303955
151	0xbec28575	-0.37992445
152	0x3dbd6af3	0.092489146
153	0x3ec27f93	0.37987956
154	0x3e41f81f	0.18942307
155	0xbcbf6a23	-0.02336604
156	0xbe7c6a6c	-0.24649972
157	0xbdfdfcde	-0.12401746
158	0x3dd5598b	0.104174696
159	0x3e7955fa	0.24349204
160	0x3e0b56ab	0.1360728
161	0x3f0e0aa8	0.5548501
162	0xbe0111cd	-0.12604447
163	0xbf4308ad	-0.76185113
164	0xbf8911d0	-1.0708561
165	0xbebf427c	-0.3735541
166	0xbebe9aa0	-0.37227345
167	0x3ea880bf	0.32910725
168	0x3ec17fef	0.37792918
169	0xbe6e4f98	-0.2327255
170	0x3e697b39	0.22800912
171	0x3ee5875f	0.44829842
172	0x3f1e773a	0.61900675
173	0x3e6a8a01	0.22904207
174	0x3ec3a750	0.38213587
175	0x3e51d906	0.20492944
176	0xbf7e27f4	-0.99279714
177	0xbf374583	-0.7159044
178	0xbeed8d95	-0.4639708
179	0xbe66f116	-0.22552904
180	0xbe114b16	-0.141888
181	0x3e9b3e8d	0.3032116
182	0x3e832f39	0.25621966
183	0x3f1463c0	0.57964706
184	0x3edbc6fc	0.4292525
185	0x3e996795	0.2996184
186	0xbe6794ea	-0.226154
187	0xbf0c6b60	-0.5485134
188	0xbe948678	-0.29008842
189	0xbeff9e3f	-0.4992542
190	0xbf479b46	-0.77971303
191	0xbf571df7	-0.840301
192	0xbea11445	-0.31460777
193	0x3e878931	0.26471856
194	0x3ea0f476	0.3143651
195	0x3e9fe197	0.312268
196	0x3d7a38c3	0.06108929
197	0x3d7fc5bf	0.062444445
198	0x3d55f0ca	0.052231587
199	0xbe79ceaa	-0.24395242
200	0x3dcf73f2	0.10129537
201	0x3d60ab3d	0.054850806
202	0xbe00b26c	-0.12568063
203	0x3eacc1be	0.33741564
204	0x3e300d82	0.17192653
205	0xbe28744a	-0.16450611
206	0xbf0a35ec	-0.5398853
207	0xbdf370ed	-0.11886773
208	0xbea5ec47	-0.32406828
209	0xbe4310e0	-0.19049406
210	0x3d525e52	0.051359482
211	0x3d2d22fe	0.0422697
212	0x3d801679	0.06254286
213	0xbe17a71c	-0.14809841
214	0xbe613e5b	-0.21996443
215	0x3ed87fdd	0.42285052
216	0xbe6bd5ec	-0.23030823
217	0x3ed90acc	0.4239105
218	0xbeaff4c0	-0.34366417
219	0x3eaf010e	0.34180492
220	0x3f847e15	1.0350977
221	0xbca23dbf	-0.019804833
222	0xbe0f7128	-0.1400801
223	0xbf31fe10	-0.69528294
224	0x3d9697be	0.07353161
225	0xbc46162a	-0.012090245
226	0x3e05c189	0.13062109
227	0xbe09b5cc	-0.13448256
228	0x3e27da16	0.16391787
229	0x3fce78cb	1.6130613
230	0xbf23fedc	-0.6406076
231	0x3f413f20	0.75486946
232	0x3f2a2f8b	0.66478795
233	0x3e0f035d	0.13966127
234	0xbd4723d2	-0.048618145
235	0x3f148691	0.5801783
236	0x3f689152	0.9084674
237	0x3e86e62c	0.26347482
238	0x3d30385b	0.043022495
239	0x3de83dc5	0.113399066
240	0x3e065b7c	0.13120836
241	0xbe0019f4	-0.125099
242	0xbf1eee55	-0.62082416
243	0x3e1f12ed	0.15534563
244	0x3e3627e0	0.17788649
245	0xbe028f2c	-0.12749928
246	0xbdec027c	-0.11523911
247	0x3f3189c2	0.69350827
248	0x3f23fe22	0.6405965
249	0x3ed76ef6	0.42076844
250	0x3ef187b4	0.47173846
251	0xbe979ade	-0.29610342
252	0x3db88fb8	0.09011787
253	0x3d2d011b	0.042237382
254	0xbf3ace09	-0.72970635
255	0xbf8479f4	-1.0349717

bias f4 [10]
0	0x3dae35a8	0.08506328
1	0x3f8411a8	1.0317888
2	0x3ed58680	0.41704178
3	0xbf11a1b7	-0.5688738
4	0xbd60347c	-0.054737553
5	0x3d5c642e	0.053806476
6	0x3c8b9cff	0.017042635
7	0x3eaf57b2	0.34246594
8	0xbed6f37b	-0.41982636
9	0xbeb8ed66	-0.3611862
