Pytorch_code-master/pytorch_code/04/cls_reg/model/model.pkl (torch_old, 10221 bytes, 3 tensors)

weight f4 [100, 13]
00000000: b192 39bf 7984 953c 926a f9be b255 57c0
00000010: c9c4 183f aa29 1cbd e730 923e 0653 8ebf
00000020: 10fa 2a3e 6685 083e 0f9b 053e 704c 18be
00000030: 1b74 8fbf b0f3 c9bd de51 103e ba70 1ebe
00000040: 10a2 cfbd 84b4 0fbd 3e3b d9bd 7059 b1bc
00000050: 7094 d8bc b9dc 25be c42e 33bd 48f2 29be
00000060: 31bc 0ebe 9c2a 8bbd 1d1d 69bf 9e0f 13bf
00000070: d996 b2bf 61ce 7e40 3460 fdbf 2817 fabd
00000080: 3e98 743e 20f9 383f 595a b63d 0416 aa3b
00000090: d675 7ebe 6931 38bd 4a55 a93f 4683 fb3e
000000a0: 4779 803e 30ff f53d a5ea c9c0 8a1d 5a40
000000b0: 7054 34c0 6c28 2abc ed4c 99bf 199c e6bd
000000c0: f940 fe3d ce22 2a3e 8079 44be 02fa 39be
000000d0: 336e 393d 8051 743c 5393 48be e71e 1b3f
000000e0: e587 1340 3d9e fd3f 0e3b e73e ba51 20c0
000000f0: 6e4b c23d ca34 5cbd b4d4 40be 5c7a 92be
00000100: cfdf 05bd 6072 a5bd 22cf 4ebe 9049 0b3d
00000110: 062a 6e3e dea6 2d3e 2097 57bc ba90 9dbd
00000120: 04ae 89be 5280 78be f065 09be c06e b73c
00000130: d7af 36be 7a11 c5bd f18e 8a3e 87b0 833e
00000140: 5c8e 253e 3464 4dbd 4163 70be 4054 7abc
00000150: b658 33be 7cf1 b83d 5e18 53be c09b d1bb
00000160: 66e6 64be 38d4 05be 9cab c03d b0fe 0e3d
00000170: 6159 72be 28e6 87be fc38 b6bd 9a48 f5bd
00000180: 4ae2 6e3e ac5e 46be 00f5 443c 24f5 2c3e
00000190: d666 35be 48b1 2ebe 88b8 57be e291 2c3e
000001a0: 2968 a5bc 0ceb 18be 1af5 59be d746 4abe
000001b0: 1c45 c739 d006 49be 8dff 353e 09cf 243e
000001c0: b1d5 5cbe 23dd 96bd 6ed4 c0bd 9ead 9fbe
000001d0: 1e07 7abe ff49 01bf ea17 413f f7d4 1abd
000001e0: ec55 b9bf a141 fbbe a245 c5be 129b e5bc
000001f0: ab7f 2c3f 3f09 a33d 2651 a43d 0131 a6bd
00000200: d4db 10be 850e 0e3e f58d 1a3e 60b4 2c3e
00000210: 200a 013e 73fa 37c0 cbc3 a3be 64e2 1240
00000220: 0080 883e 6b38 edbe 0a2a 513f 369f 2fbe
00000230: fc31 8c3e 672d 023e 9e69 7ebf ec8e 7e3e
00000240: a9d6 31bd d387 0dbf 19a9 1cc1 d2db b23f
00000250: a4e6 493f ba22 90bb 9f96 32bf 1764 87bb
00000260: ccfa 373d 9aee cebe f106 a7bc 146d 0bbf
00000270: 791c 423f 2f58 06be 922c 30be 631a 4dc1
00000280: 2e11 053e 42c4 e0bf 592e 4ebd e15e 10bf
00000290: 7567 1bbd e4ea b83c 1caf 6bbf 0859 913d
000002a0: 940c dcbe 6d37 8f3f f4e0 c63e 4a86 84be
000002b0: 95eb 61c1 77dc 34bf 2ddd e43f 7c6e 273e
000002c0: dd20 34bf fd12 d1bf b1e9 10be b1ec e4be
000002d0: b47d 003d 6aaa 16bf 8c8b 8fbf d61a e53d
000002e0: 9e7d 213f 76f2 58be c23b bebf cf9a e83f
000002f0: b153 72be 2157 673e f46a 723e 3a3a c73d
00000300: 34f5 cc3d 248f adbc 7edf f5bf 4889 09bf
00000310: d1d1 82bc b1f7 81be 8dc3 8b3f 2c8e aebe
00000320: c915 44bf c02b 8cbc 0737 963e c858 bebe
00000330: e2dc bb3d b5aa 493d e979 9abd 2588 dcbe
00000340: 575a a6be 2dfe eebd 500d 4abe cb01 b63d
00000350: 1362 1d3d bf68 b5bd 8fb5 04be f830 2bbe
00000360: b767 25be 21d2 8dbe 18b3 973d f9f9 a83d
00000370: 6cac d4bd cd44 d23e cb27 373f 45ee dc3d
00000380: d39b 4fc0 ee54 95c0 b4b4 5cc0 f4a3 84bd
00000390: feea 65c0 d671 af3e 4226 1d3e 55cd 023f
000003a0: 80d5 4fbe fa19 0dbf 7c3b a13f dcc0 c0bd
000003b0: 459a b63e e623 b1c0 f43b 44be f598 babf
000003c0: 184a 80be 25c0 973d d8ef 073e f6d2 00bd
000003d0: d0df 6abc 0d67 aa3d 87a6 d43e 96e2 0b3f
000003e0: dea4 283f dbf6 903e 88db b540 1988 d23e
000003f0: c496 0140 f9f1 d73d b196 df3c 2ecb dcbe
-0.7248946 0.018251644 -0.4871412 -3.3646054 0.5967527 -0.03812567 0.28552935 -1.1119087
0.16696954 0.13332137 0.13047431 -0.14872909 -1.1207308 -0.09860933 0.1409373 -0.1547269
-0.10138333 -0.035084262 -0.10607003 -0.021649092 -0.026437968 -0.1619748 -0.04374577 -0.16596329
-0.13938977 -0.067952365 -0.9106005 -0.57445705 -1.3952285 3.9813464 -1.9794984 -0.12211448
0.23886201 0.72255135 0.08903951 0.0051906127 -0.24849638 -0.044968996 1.3229153 0.4912359
0.25092527 0.12011564 -6.309893 3.408053 -2.8176537 -0.010385614 -1.1976601 -0.11260242
0.12414736 0.1661484 -0.19186974 -0.18161777 0.04527111 0.014912009 -0.1958745 0.6059403
2.3051693 1.9813915 0.45162243 -2.5049882 0.09487043 -0.05376128 -0.1883114 -0.28608978
-0.032684144 -0.08078456 -0.20196202 0.0340057 0.23258218 0.16958186 -0.01315859 -0.0769362
-0.26890576 -0.242677 -0.13417792 0.022391677 -0.17840515 -0.09622474 0.2706218 0.25720617
0.16167587 -0.05014439 -0.23475362 -0.015278876 -0.1751431 0.090304345 -0.20614764 -0.0063967407
-0.22353515 -0.13069236 0.09407732 0.034910858 -0.23666908 -0.26542783 -0.08897588 -0.11976738
0.2332851 -0.19372052 0.012021303 0.16890389 -0.1771501 -0.17059815 -0.21066487 0.16852525
-0.020191269 -0.14933413 -0.21284905 -0.19753586 0.00038007728 -0.19631505 0.17773266 0.16094603
-0.21565892 -0.07366397 -0.09415518 -0.31187147 -0.24416777 -0.50503534 0.75427115 -0.037800755
-1.4479346 -0.49073508 -0.38529688 -0.028028045 0.67382306 0.07960748 0.0802329 -0.081148155
-0.14146358 0.13872726 0.15093215 0.16865683 0.12601519 -2.8746612 -0.31985316 2.2950678
0.26660156 -0.46332106 0.8170477 -0.17150578 0.27381885 0.12712632 -0.9937991 0.24859208
-0.043417607 -0.55285376 -9.791284 1.3973334 0.78867555 -0.004398671 -0.6976108 -0.0041318047
0.044916913 -0.40416414 -0.020389052 -0.54463315 0.75824696 -0.13119577 -0.17204502 -12.818942
0.12994835 -1.7559893 -0.05033717 -0.56394774 -0.03794046 0.022572942 -0.9206407 0.070970595
-0.42978346 1.118879 0.388435 -0.25883704 -14.120015 -0.706489 1.7879997 0.1635074
-0.70362645 -1.633392 -0.14151646 -0.4471183 0.03136988 -0.5885378 -1.1214461 0.11186759
0.630823 -0.21186242 -1.4861987 1.8172244 -0.23664738 0.22591831 0.23673612 0.09727903
0.10007706 -0.021186419 -1.9208829 -0.537251 -0.015969189 -0.25384286 1.0919052 -0.34092844
-0.7659574 -0.017110705 0.29338858 -0.3717711 0.091729894 0.049235065 -0.07542784 -0.4307262
-0.324908 -0.11669574 -0.19731641 0.08887061 0.03842361 -0.08857869 -0.12959884 -0.16717899
-0.16152845 -0.27699378 0.07407206 0.082508035 -0.10384449 0.41068116 0.71545094 0.10787634
-3.2438858 -4.6666174 -3.4485292 -0.06476584 -3.5924678 0.34266537 0.15346625 0.5109456
-0.20296288 -0.5511776 1.2596278 -0.09411785 0.35664573 -5.535632 -0.19163495 -1.4577929
-0.2505653 0.074096955 0.13275087 -0.031451188 -0.014335588 0.083204366 0.415333 0.5464262
0.6587657 0.28313336 5.6830482 0.4111946 2.024827 0.105441995 0.027293535 -0.43123764

bias f4 [100]
00000000: c529 c13d 86a2 b8bd 21f9 ec3e 48e3 1c3f
00000010: 36a9 183e c6cb 30be bf34 85be f830 8ebd
00000020: 3eaa 89be 9c13 debe a2dc e9bd 11d2 0dbf
00000030: 5cd4 5abf 381d 9c3c 78ad 8f3e 28e7 09bf
00000040: 48ea 213d d9b2 303e 79a8 cabe d77f 3bbd
00000050: 965a 3fbe a2fb b73d 8ba4 9fbe 6b81 aebe
00000060: a0a9 3fbe 302a 8fbe 609e 27be 2e8a 303e
00000070: 8900 303e c02c a83b c6b6 4bbe fe49 af3e
00000080: ff5a dc3e 17e1 37be b7d7 ef3e 9292 14be
00000090: 6446 093f 37b0 41bf 6ba5 633e 7c04 bc3d
000000a0: 80fe 43bd 767b 3ebf 4b57 193f 45c8 1f3e
000000b0: c03d 6f3e aca4 533e c48a 0abd 6d1e 003f
000000c0: ec52 35be 44c8 15be 7a74 efbd a083 ffbe
000000d0: f7ea b43e 334f 75ba c311 9e3e 2acb 4c3e
000000e0: 5d25 f7be 1c37 b3bc 004d 0abb 20ea 8abe
000000f0: 0dbf a33f 4b10 14be f157 8c3a e90e b63e
00000100: 8139 96be 187e 3ebe 6082 9a3c 70ab 363d
00000110: 1c92 793e ef0d 67bd 08f6 15bf 44ba 253e
00000120: 8e76 03bf 09c9 cf3d 5829 c0bd 9dce 14bd
00000130: 61a4 a33e 91ce c8be 65e0 8a3e bca6 d6bd
00000140: ee39 07bf 2f9c 873e 2cb1 90bd cc4c 73be
00000150: 8ec2 ae3e 00bc 813b c048 b43d 8a48 7fbf
00000160: c809 6cbd e5f5 69bf 239b 50be acdd d13d
00000170: 3cda ea3d 6b3e e2bd 382a 463d 381d 2e3e
00000180: 5434 a2bd 5cba 263d ff86 cc3d 494f 8b3e
0.09431795 -0.09015374 0.4628382 0.61284304 0.14908299 -0.17265233 -0.26016805 -0.06942934
-0.26887697 -0.43374336 -0.114190355 -0.5539866 -0.85480285 0.019056901 0.28062034 -0.5386834
0.03953007 0.17255725 -0.3958166 -0.045776214 -0.186869 0.08983542 -0.31180224 -0.34083113
-0.1871705 -0.27961874 -0.16369009 0.17240211 0.17187704 0.0051322877 -0.19893941 0.3423614
0.43038175 -0.17956959 0.46844265 -0.14509037 0.5362303 -0.7565951 0.2223107 0.09180543
-0.047850132 -0.74407136 0.59898823 0.1560374 0.233634 0.20668286 -0.033823743 0.50046426
-0.17707413 -0.14627177 -0.11692138 -0.4990511 0.35335514 -0.000935781 0.30872926 0.19999376
-0.48270693 -0.021876864 -0.0021103024 -0.27131748 1.2792679 -0.1445934 0.0010707361 0.3555825
-0.29340747 -0.18602788 0.018860996 0.04459709 0.24372143 -0.056409772 -0.5857854 0.16184336
-0.51352775 0.10145766 -0.09382886 -0.036329854 0.3196135 -0.39220098 0.27124324 -0.10481021
-0.5282277 0.26486346 -0.07065043 -0.23759764 0.34132808 0.003959179 0.088029385 -0.9972006
-0.057626516 -0.9139083 -0.2037168 0.10247359 0.11467406 -0.110470615 0.048380107 0.17003334
-0.07920137 0.04070507 0.09986686 0.27208927

weight f4 [1, 100]
00000000: e1f3 bebd 73bd 923d 0c4c e03d 384d 50be
00000010: dcf5 13be 1fc8 c03d 948e b4bc 0d99 21bd
00000020: e047 e63b 8085 c63d 5d92 813e 304c 73bb
00000030: c9bd 93bd b703 283f c525 563e 493e 083c
00000040: b6fd 05bd 273d 863f 006b 34bd 7d03 7f3d
00000050: 43d9 b73d 4919 8739 6317 173e 79cc ecbe
00000060: 8c59 b7bb 0bc6 31bc a6a6 693d 2dad a23d
00000070: c5aa 95be cf35 863d 50c6 4d3d c2f9 cabd
00000080: a31c 153e aafa 4e3d 57df cf3d 6ac1 f5bc
00000090: 7d9f 0c3d b785 aabc 00af 2e3f eb0a 9ebd
000000a0: b640 9fbd 5322 18be b1d3 0c3e 27a1 b9ba
000000b0: 7329 233e d2d1 d53c 0a7e 0b3d 72cc 603d
000000c0: 5127 e7bc a5e3 76bd 5d4c c3bd 8446 c3bc
000000d0: 73c9 8d3c fc3f cc3b 34e1 183e df7c 4bbd
000000e0: 625b debe a5e0 c3be d028 7fbc 01fe 713c
000000f0: ac0e 4f3f 471b c0bd bbf8 95bc fecb 283f
00000100: ab1c 963b 159d b83c e2b4 353d 408e 6cbc
00000110: ed0f df3e fff1 283b 1309 b4bd 62a4 86bd
00000120: b430 52bd e984 353e ac0d 1bbd 788c 293c
00000130: 5c7e 803b e2d1 d1bc f5a5 493d 8dbc efbd
00000140: 082f 6bbe ba1d 783e 7bd0 25bf f8dc f2bc
00000150: 146e a13b 2b09 96bd d5cd 233f cf8c 2bbe
00000160: 70c1 483c 0d6d c2bd ad64 92b8 150d ca3d
00000170: a7da 0bbd b762 873c b232 a2bd 90a4 463c
00000180: 194a 433c 8f8f 113d 4c10 eb3d c323 b1bd
-0.0932386 0.07165041 0.10952005 -0.20341957 -0.14449257 0.0941317 -0.022040643 -0.0394526
0.007027611 0.09693432 0.2530698 -0.0037124269 -0.07213933 0.6563067 0.20912845 0.008315631
-0.03271266 1.0487412 -0.044047356 0.062259186 0.08976986 0.00025768045 0.14755015 -0.4624975
-0.0055953916 -0.01085044 0.057043694 0.07943187 -0.2923185 0.06553232 0.050237954 -0.09910919
0.14561705 0.05053202 0.101500206 -0.029999454 0.034331787 -0.020815713 0.6823578 -0.07716926
-0.077760145 -0.14856844 0.13752629 -0.0014162407 0.1593378 0.026101027 0.034055747 0.054882474
-0.02821699 -0.060275692 -0.095360495 -0.023837335 0.017307973 0.0062332135 0.14929658 -0.049679633
-0.43429095 -0.38257328 -0.015573695 0.014770032 0.8088176 -0.09380203 -0.01830708 0.6593627
0.004581054 0.02253584 0.044361956 -0.014438212 0.43566838 0.0025779007 -0.08790793 -0.06574322
-0.05131598 0.17726482 -0.037854835 0.010348432 0.003921313 -0.025612775 0.049230535 -0.11705885
-0.2296716 0.2423009 -0.6477124 -0.029646382 0.0049264524 -0.073259674 0.6398595 -0.16752933
0.01225315 -0.09493456 -6.980575e-05 0.098657764 -0.03414407 0.016526563 -0.079198256 0.012124196
0.011919522 0.0355373 0.11477718 -0.08649399
